{
  "storage" : "model.espresso.weights",
  "analyses" : {

  },
  "properties" : {

  },
  "format_version" : 200,
  "metadata_in_weights" : [

  ],
  "layers" : [
    {
      "pad_r" : 0,
      "fused_relu" : 1,
      "fused_tanh" : 0,
      "debug_info" : "model\/stage_1_1_conv\/Conv2Dx",
      "pad_fill_mode" : 0,
      "pad_b" : 0,
      "pad_l" : 0,
      "top" : "model\/stage_1_1_relu\/Relu",
      "blob_weights" : 3,
      "K" : 1,
      "blob_biases" : 1,
      "stride_x" : 2,
      "name" : "model\/stage_1_1_conv\/Conv2Dx",
      "has_batch_norm" : 0,
      "type" : "convolution",
      "n_groups" : 1,
      "pad_t" : 0,
      "stride_y" : 2,
      "has_biases" : 1,
      "C" : 16,
      "bottom" : "input",
      "weights" : {

      },
      "Nx" : 3,
      "pad_mode" : 1,
      "pad_value" : 0,
      "Ny" : 3,
      "n_parallel" : 1
    },
    {
      "pad_r" : 0,
      "fused_relu" : 0,
      "fused_tanh" : 0,
      "debug_info" : "model\/stage_1_2_dw_conv\/depthwisex",
      "pad_fill_mode" : 0,
      "pad_b" : 0,
      "pad_l" : 0,
      "top" : "batch_norm_1",
      "blob_weights" : 7,
      "K" : 16,
      "blob_biases" : 5,
      "name" : "model\/stage_1_2_dw_conv\/depthwisex",
      "has_batch_norm" : 0,
      "type" : "convolution",
      "n_groups" : 16,
      "pad_t" : 0,
      "has_biases" : 1,
      "C" : 16,
      "bottom" : "model\/stage_1_1_relu\/Relu",
      "weights" : {

      },
      "Nx" : 3,
      "pad_mode" : 1,
      "pad_value" : 0,
      "Ny" : 3,
      "n_parallel" : 1
    },
    {
      "pad_r" : 0,
      "fused_relu" : 1,
      "fused_tanh" : 0,
      "debug_info" : "model\/stage_1_2_pw_conv\/Conv2Dx",
      "pad_fill_mode" : 0,
      "pad_b" : 0,
      "pad_l" : 0,
      "top" : "model\/stage_1_2_pw_relu\/Relu",
      "blob_weights" : 11,
      "K" : 16,
      "blob_biases" : 9,
      "name" : "model\/stage_1_2_pw_conv\/Conv2Dx",
      "has_batch_norm" : 0,
      "type" : "convolution",
      "n_groups" : 1,
      "pad_t" : 0,
      "has_biases" : 1,
      "C" : 16,
      "bottom" : "batch_norm_1",
      "weights" : {

      },
      "Nx" : 1,
      "pad_mode" : 0,
      "pad_value" : 0,
      "Ny" : 1,
      "n_parallel" : 1
    },
    {
      "pad_r" : 0,
      "debug_info" : "avg_pool_0",
      "pad_fill_mode" : 0,
      "pad_b" : 0,
      "pad_l" : 0,
      "size_x" : 2,
      "top" : "avg_pool_0",
      "top_shape_style" : 0,
      "stride_x" : 2,
      "avg_or_max" : 0,
      "average_count_exclude_padding" : 1,
      "type" : "pool",
      "name" : "avg_pool_0",
      "pad_t" : 0,
      "stride_y" : 2,
      "bottom" : "model\/stage_1_2_pw_relu\/Relu",
      "weights" : {

      },
      "pad_mode" : 2,
      "size_y" : 2,
      "pad_value" : 0
    },
    {
      "pad_r" : 0,
      "fused_relu" : 0,
      "fused_tanh" : 0,
      "debug_info" : "model\/stage_2_1_dw_conv\/depthwisex",
      "pad_fill_mode" : 0,
      "pad_b" : 0,
      "pad_l" : 0,
      "top" : "batch_norm_3",
      "blob_weights" : 15,
      "K" : 16,
      "blob_biases" : 13,
      "name" : "model\/stage_2_1_dw_conv\/depthwisex",
      "has_batch_norm" : 0,
      "type" : "convolution",
      "n_groups" : 16,
      "pad_t" : 0,
      "has_biases" : 1,
      "C" : 16,
      "bottom" : "avg_pool_0",
      "weights" : {

      },
      "Nx" : 5,
      "pad_mode" : 1,
      "pad_value" : 0,
      "Ny" : 5,
      "n_parallel" : 1
    },
    {
      "pad_r" : 0,
      "fused_relu" : 1,
      "fused_tanh" : 0,
      "debug_info" : "model\/stage_2_1_pw_conv\/Conv2Dx",
      "pad_fill_mode" : 0,
      "pad_b" : 0,
      "pad_l" : 0,
      "top" : "model\/stage_2_1_pw_relu\/Relu",
      "blob_weights" : 19,
      "K" : 16,
      "blob_biases" : 17,
      "name" : "model\/stage_2_1_pw_conv\/Conv2Dx",
      "has_batch_norm" : 0,
      "type" : "convolution",
      "n_groups" : 1,
      "pad_t" : 0,
      "has_biases" : 1,
      "C" : 32,
      "bottom" : "batch_norm_3",
      "weights" : {

      },
      "Nx" : 1,
      "pad_mode" : 0,
      "pad_value" : 0,
      "Ny" : 1,
      "n_parallel" : 1
    },
    {
      "pad_r" : 0,
      "fused_relu" : 0,
      "fused_tanh" : 0,
      "debug_info" : "model\/stage_2_2_dw_conv\/depthwisex",
      "pad_fill_mode" : 0,
      "pad_b" : 0,
      "pad_l" : 0,
      "top" : "batch_norm_5",
      "blob_weights" : 23,
      "K" : 32,
      "blob_biases" : 21,
      "name" : "model\/stage_2_2_dw_conv\/depthwisex",
      "has_batch_norm" : 0,
      "type" : "convolution",
      "n_groups" : 32,
      "pad_t" : 0,
      "has_biases" : 1,
      "C" : 32,
      "bottom" : "model\/stage_2_1_pw_relu\/Relu",
      "weights" : {

      },
      "Nx" : 5,
      "pad_mode" : 1,
      "pad_value" : 0,
      "Ny" : 5,
      "n_parallel" : 1
    },
    {
      "pad_r" : 0,
      "fused_relu" : 1,
      "fused_tanh" : 0,
      "debug_info" : "model\/stage_2_2_pw_conv\/Conv2Dx",
      "pad_fill_mode" : 0,
      "pad_b" : 0,
      "pad_l" : 0,
      "top" : "model\/stage_2_2_pw_relu\/Relu",
      "blob_weights" : 27,
      "K" : 32,
      "blob_biases" : 25,
      "name" : "model\/stage_2_2_pw_conv\/Conv2Dx",
      "has_batch_norm" : 0,
      "type" : "convolution",
      "n_groups" : 1,
      "pad_t" : 0,
      "has_biases" : 1,
      "C" : 32,
      "bottom" : "batch_norm_5",
      "weights" : {

      },
      "Nx" : 1,
      "pad_mode" : 0,
      "pad_value" : 0,
      "Ny" : 1,
      "n_parallel" : 1
    },
    {
      "pad_r" : 0,
      "debug_info" : "avg_pool_1",
      "pad_fill_mode" : 0,
      "pad_b" : 0,
      "pad_l" : 0,
      "size_x" : 2,
      "top" : "avg_pool_1",
      "top_shape_style" : 0,
      "stride_x" : 2,
      "avg_or_max" : 0,
      "average_count_exclude_padding" : 1,
      "type" : "pool",
      "name" : "avg_pool_1",
      "pad_t" : 0,
      "stride_y" : 2,
      "bottom" : "model\/stage_2_2_pw_relu\/Relu",
      "weights" : {

      },
      "pad_mode" : 2,
      "size_y" : 2,
      "pad_value" : 0
    },
    {
      "pad_r" : 0,
      "fused_relu" : 0,
      "fused_tanh" : 0,
      "debug_info" : "model\/stage_3_1_dw_conv\/depthwisex",
      "pad_fill_mode" : 0,
      "pad_b" : 0,
      "pad_l" : 0,
      "top" : "batch_norm_7",
      "blob_weights" : 31,
      "K" : 32,
      "blob_biases" : 29,
      "name" : "model\/stage_3_1_dw_conv\/depthwisex",
      "has_batch_norm" : 0,
      "type" : "convolution",
      "n_groups" : 32,
      "pad_t" : 0,
      "has_biases" : 1,
      "C" : 32,
      "bottom" : "avg_pool_1",
      "weights" : {

      },
      "Nx" : 5,
      "pad_mode" : 1,
      "pad_value" : 0,
      "Ny" : 5,
      "n_parallel" : 1
    },
    {
      "pad_r" : 0,
      "fused_relu" : 1,
      "fused_tanh" : 0,
      "debug_info" : "model\/stage_3_1_pw_conv\/Conv2Dx",
      "pad_fill_mode" : 0,
      "pad_b" : 0,
      "pad_l" : 0,
      "top" : "model\/stage_3_1_pw_relu\/Relu",
      "blob_weights" : 35,
      "K" : 32,
      "blob_biases" : 33,
      "name" : "model\/stage_3_1_pw_conv\/Conv2Dx",
      "has_batch_norm" : 0,
      "type" : "convolution",
      "n_groups" : 1,
      "pad_t" : 0,
      "has_biases" : 1,
      "C" : 64,
      "bottom" : "batch_norm_7",
      "weights" : {

      },
      "Nx" : 1,
      "pad_mode" : 0,
      "pad_value" : 0,
      "Ny" : 1,
      "n_parallel" : 1
    },
    {
      "pad_r" : 0,
      "fused_relu" : 0,
      "fused_tanh" : 0,
      "debug_info" : "model\/stage_3_2_dw_conv\/depthwisex",
      "pad_fill_mode" : 0,
      "pad_b" : 0,
      "pad_l" : 0,
      "top" : "batch_norm_9",
      "blob_weights" : 39,
      "K" : 64,
      "blob_biases" : 37,
      "name" : "model\/stage_3_2_dw_conv\/depthwisex",
      "has_batch_norm" : 0,
      "type" : "convolution",
      "n_groups" : 64,
      "pad_t" : 0,
      "has_biases" : 1,
      "C" : 64,
      "bottom" : "model\/stage_3_1_pw_relu\/Relu",
      "weights" : {

      },
      "Nx" : 5,
      "pad_mode" : 1,
      "pad_value" : 0,
      "Ny" : 5,
      "n_parallel" : 1
    },
    {
      "pad_r" : 0,
      "fused_relu" : 1,
      "fused_tanh" : 0,
      "debug_info" : "model\/stage_3_2_pw_conv\/Conv2Dx",
      "pad_fill_mode" : 0,
      "pad_b" : 0,
      "pad_l" : 0,
      "top" : "model\/stage_3_2_pw_relu\/Relu",
      "blob_weights" : 43,
      "K" : 64,
      "blob_biases" : 41,
      "name" : "model\/stage_3_2_pw_conv\/Conv2Dx",
      "has_batch_norm" : 0,
      "type" : "convolution",
      "n_groups" : 1,
      "pad_t" : 0,
      "has_biases" : 1,
      "C" : 64,
      "bottom" : "batch_norm_9",
      "weights" : {

      },
      "Nx" : 1,
      "pad_mode" : 0,
      "pad_value" : 0,
      "Ny" : 1,
      "n_parallel" : 1
    },
    {
      "pad_r" : 0,
      "fused_relu" : 0,
      "fused_tanh" : 0,
      "debug_info" : "model\/stage_3_3_dw_conv\/depthwisex",
      "pad_fill_mode" : 0,
      "pad_b" : 0,
      "pad_l" : 0,
      "top" : "batch_norm_11",
      "blob_weights" : 47,
      "K" : 64,
      "blob_biases" : 45,
      "name" : "model\/stage_3_3_dw_conv\/depthwisex",
      "has_batch_norm" : 0,
      "type" : "convolution",
      "n_groups" : 64,
      "pad_t" : 0,
      "has_biases" : 1,
      "C" : 64,
      "bottom" : "model\/stage_3_2_pw_relu\/Relu",
      "weights" : {

      },
      "Nx" : 5,
      "pad_mode" : 1,
      "pad_value" : 0,
      "Ny" : 5,
      "n_parallel" : 1
    },
    {
      "pad_r" : 0,
      "fused_relu" : 1,
      "fused_tanh" : 0,
      "debug_info" : "model\/stage_3_3_pw_conv\/Conv2Dx",
      "pad_fill_mode" : 0,
      "pad_b" : 0,
      "pad_l" : 0,
      "top" : "model\/stage_3_3_pw_relu\/Relu",
      "blob_weights" : 51,
      "K" : 64,
      "blob_biases" : 49,
      "name" : "model\/stage_3_3_pw_conv\/Conv2Dx",
      "has_batch_norm" : 0,
      "type" : "convolution",
      "n_groups" : 1,
      "pad_t" : 0,
      "has_biases" : 1,
      "C" : 64,
      "bottom" : "batch_norm_11",
      "weights" : {

      },
      "Nx" : 1,
      "pad_mode" : 0,
      "pad_value" : 0,
      "Ny" : 1,
      "n_parallel" : 1
    },
    {
      "pad_r" : 0,
      "fused_relu" : 0,
      "fused_tanh" : 0,
      "debug_info" : "model\/stage_3_4_dw_conv\/depthwisex",
      "pad_fill_mode" : 0,
      "pad_b" : 0,
      "pad_l" : 0,
      "top" : "batch_norm_13",
      "blob_weights" : 55,
      "K" : 64,
      "blob_biases" : 53,
      "name" : "model\/stage_3_4_dw_conv\/depthwisex",
      "has_batch_norm" : 0,
      "type" : "convolution",
      "n_groups" : 64,
      "pad_t" : 0,
      "has_biases" : 1,
      "C" : 64,
      "bottom" : "model\/stage_3_3_pw_relu\/Relu",
      "weights" : {

      },
      "Nx" : 5,
      "pad_mode" : 1,
      "pad_value" : 0,
      "Ny" : 5,
      "n_parallel" : 1
    },
    {
      "pad_r" : 0,
      "fused_relu" : 1,
      "fused_tanh" : 0,
      "debug_info" : "model\/stage_3_4_pw_conv\/Conv2Dx",
      "pad_fill_mode" : 0,
      "pad_b" : 0,
      "pad_l" : 0,
      "top" : "model\/stage_3_4_pw_relu\/Relu",
      "blob_weights" : 59,
      "K" : 64,
      "blob_biases" : 57,
      "name" : "model\/stage_3_4_pw_conv\/Conv2Dx",
      "has_batch_norm" : 0,
      "type" : "convolution",
      "n_groups" : 1,
      "pad_t" : 0,
      "has_biases" : 1,
      "C" : 64,
      "bottom" : "batch_norm_13",
      "weights" : {

      },
      "Nx" : 1,
      "pad_mode" : 0,
      "pad_value" : 0,
      "Ny" : 1,
      "n_parallel" : 1
    },
    {
      "pad_r" : 0,
      "fused_relu" : 0,
      "fused_tanh" : 0,
      "debug_info" : "model\/head_dm_obj_conv\/Conv2Dx",
      "pad_fill_mode" : 0,
      "pad_b" : 0,
      "pad_l" : 0,
      "top" : "batch_norm_15",
      "blob_weights" : 63,
      "K" : 64,
      "blob_biases" : 61,
      "name" : "model\/head_dm_obj_conv\/Conv2Dx",
      "has_batch_norm" : 0,
      "type" : "convolution",
      "n_groups" : 1,
      "pad_t" : 0,
      "has_biases" : 1,
      "C" : 1,
      "bottom" : "model\/stage_3_4_pw_relu\/Relu",
      "weights" : {

      },
      "Nx" : 1,
      "pad_mode" : 1,
      "pad_value" : 0,
      "Ny" : 1,
      "n_parallel" : 1
    },
    {
      "pad_r" : 0,
      "fused_relu" : 0,
      "fused_tanh" : 0,
      "debug_info" : "model\/head_dm_bitu_conv\/Conv2Dx",
      "pad_fill_mode" : 0,
      "pad_b" : 0,
      "pad_l" : 0,
      "top" : "batch_norm_16",
      "blob_weights" : 67,
      "K" : 64,
      "blob_biases" : 65,
      "name" : "model\/head_dm_bitu_conv\/Conv2Dx",
      "has_batch_norm" : 0,
      "type" : "convolution",
      "n_groups" : 1,
      "pad_t" : 0,
      "has_biases" : 1,
      "C" : 4,
      "bottom" : "model\/stage_3_4_pw_relu\/Relu",
      "weights" : {

      },
      "Nx" : 1,
      "pad_mode" : 1,
      "pad_value" : 0,
      "Ny" : 1,
      "n_parallel" : 1
    },
    {
      "pad_r" : 0,
      "fused_relu" : 0,
      "fused_tanh" : 0,
      "debug_info" : "model\/head_dm_inv_conv\/Conv2Dx",
      "pad_fill_mode" : 0,
      "pad_b" : 0,
      "pad_l" : 0,
      "top" : "batch_norm_17",
      "blob_weights" : 71,
      "K" : 64,
      "blob_biases" : 69,
      "name" : "model\/head_dm_inv_conv\/Conv2Dx",
      "has_batch_norm" : 0,
      "type" : "convolution",
      "n_groups" : 1,
      "pad_t" : 0,
      "has_biases" : 1,
      "C" : 1,
      "bottom" : "model\/stage_3_4_pw_relu\/Relu",
      "weights" : {

      },
      "Nx" : 1,
      "pad_mode" : 1,
      "pad_value" : 0,
      "Ny" : 1,
      "n_parallel" : 1
    },
    {
      "pad_r" : 0,
      "fused_relu" : 0,
      "fused_tanh" : 0,
      "debug_info" : "model\/head_qr_obj_conv\/Conv2Dx",
      "pad_fill_mode" : 0,
      "pad_b" : 0,
      "pad_l" : 0,
      "top" : "batch_norm_18",
      "blob_weights" : 75,
      "K" : 64,
      "blob_biases" : 73,
      "name" : "model\/head_qr_obj_conv\/Conv2Dx",
      "has_batch_norm" : 0,
      "type" : "convolution",
      "n_groups" : 1,
      "pad_t" : 0,
      "has_biases" : 1,
      "C" : 1,
      "bottom" : "model\/stage_3_4_pw_relu\/Relu",
      "weights" : {

      },
      "Nx" : 1,
      "pad_mode" : 1,
      "pad_value" : 0,
      "Ny" : 1,
      "n_parallel" : 1
    },
    {
      "pad_r" : 0,
      "fused_relu" : 0,
      "fused_tanh" : 0,
      "debug_info" : "model\/head_qr_bitu_conv\/Conv2Dx",
      "pad_fill_mode" : 0,
      "pad_b" : 0,
      "pad_l" : 0,
      "top" : "batch_norm_19",
      "blob_weights" : 79,
      "K" : 64,
      "blob_biases" : 77,
      "name" : "model\/head_qr_bitu_conv\/Conv2Dx",
      "has_batch_norm" : 0,
      "type" : "convolution",
      "n_groups" : 1,
      "pad_t" : 0,
      "has_biases" : 1,
      "C" : 4,
      "bottom" : "model\/stage_3_4_pw_relu\/Relu",
      "weights" : {

      },
      "Nx" : 1,
      "pad_mode" : 1,
      "pad_value" : 0,
      "Ny" : 1,
      "n_parallel" : 1
    },
    {
      "pad_r" : 0,
      "fused_relu" : 0,
      "fused_tanh" : 0,
      "debug_info" : "model\/head_qr_inv_conv\/Conv2Dx",
      "pad_fill_mode" : 0,
      "pad_b" : 0,
      "pad_l" : 0,
      "top" : "batch_norm_20",
      "blob_weights" : 83,
      "K" : 64,
      "blob_biases" : 81,
      "name" : "model\/head_qr_inv_conv\/Conv2Dx",
      "has_batch_norm" : 0,
      "type" : "convolution",
      "n_groups" : 1,
      "pad_t" : 0,
      "has_biases" : 1,
      "C" : 1,
      "bottom" : "model\/stage_3_4_pw_relu\/Relu",
      "weights" : {

      },
      "Nx" : 1,
      "pad_mode" : 1,
      "pad_value" : 0,
      "Ny" : 1,
      "n_parallel" : 1
    },
    {
      "pad_r" : 0,
      "fused_relu" : 0,
      "fused_tanh" : 0,
      "debug_info" : "model\/head_pdf_obj_conv\/Conv2Dx",
      "pad_fill_mode" : 0,
      "pad_b" : 0,
      "pad_l" : 0,
      "top" : "batch_norm_21",
      "blob_weights" : 87,
      "K" : 64,
      "blob_biases" : 85,
      "name" : "model\/head_pdf_obj_conv\/Conv2Dx",
      "has_batch_norm" : 0,
      "type" : "convolution",
      "n_groups" : 1,
      "pad_t" : 0,
      "has_biases" : 1,
      "C" : 2,
      "bottom" : "model\/stage_3_4_pw_relu\/Relu",
      "weights" : {

      },
      "Nx" : 1,
      "pad_mode" : 1,
      "pad_value" : 0,
      "Ny" : 1,
      "n_parallel" : 1
    },
    {
      "pad_r" : 0,
      "fused_relu" : 0,
      "fused_tanh" : 0,
      "debug_info" : "model\/head_pdf_bitu_conv\/Conv2Dx",
      "pad_fill_mode" : 0,
      "pad_b" : 0,
      "pad_l" : 0,
      "top" : "batch_norm_22",
      "blob_weights" : 91,
      "K" : 64,
      "blob_biases" : 89,
      "name" : "model\/head_pdf_bitu_conv\/Conv2Dx",
      "has_batch_norm" : 0,
      "type" : "convolution",
      "n_groups" : 1,
      "pad_t" : 0,
      "has_biases" : 1,
      "C" : 4,
      "bottom" : "model\/stage_3_4_pw_relu\/Relu",
      "weights" : {

      },
      "Nx" : 1,
      "pad_mode" : 1,
      "pad_value" : 0,
      "Ny" : 1,
      "n_parallel" : 1
    },
    {
      "pad_r" : 0,
      "fused_relu" : 0,
      "fused_tanh" : 0,
      "debug_info" : "model\/head_pdf_inv_conv\/Conv2Dx",
      "pad_fill_mode" : 0,
      "pad_b" : 0,
      "pad_l" : 0,
      "top" : "batch_norm_23",
      "blob_weights" : 95,
      "K" : 64,
      "blob_biases" : 93,
      "name" : "model\/head_pdf_inv_conv\/Conv2Dx",
      "has_batch_norm" : 0,
      "type" : "convolution",
      "n_groups" : 1,
      "pad_t" : 0,
      "has_biases" : 1,
      "C" : 1,
      "bottom" : "model\/stage_3_4_pw_relu\/Relu",
      "weights" : {

      },
      "Nx" : 1,
      "pad_mode" : 1,
      "pad_value" : 0,
      "Ny" : 1,
      "n_parallel" : 1
    },
    {
      "pad_r" : 0,
      "fused_relu" : 0,
      "fused_tanh" : 0,
      "debug_info" : "model\/head_1d_obj_conv\/Conv2Dx",
      "pad_fill_mode" : 0,
      "pad_b" : 0,
      "pad_l" : 0,
      "top" : "batch_norm_24",
      "blob_weights" : 99,
      "K" : 64,
      "blob_biases" : 97,
      "name" : "model\/head_1d_obj_conv\/Conv2Dx",
      "has_batch_norm" : 0,
      "type" : "convolution",
      "n_groups" : 1,
      "pad_t" : 0,
      "has_biases" : 1,
      "C" : 1,
      "bottom" : "model\/stage_3_4_pw_relu\/Relu",
      "weights" : {

      },
      "Nx" : 1,
      "pad_mode" : 1,
      "pad_value" : 0,
      "Ny" : 1,
      "n_parallel" : 1
    },
    {
      "pad_r" : 0,
      "fused_relu" : 0,
      "fused_tanh" : 0,
      "debug_info" : "model\/head_1d_bitu_conv\/Conv2Dx",
      "pad_fill_mode" : 0,
      "pad_b" : 0,
      "pad_l" : 0,
      "top" : "batch_norm_25",
      "blob_weights" : 103,
      "K" : 64,
      "blob_biases" : 101,
      "name" : "model\/head_1d_bitu_conv\/Conv2Dx",
      "has_batch_norm" : 0,
      "type" : "convolution",
      "n_groups" : 1,
      "pad_t" : 0,
      "has_biases" : 1,
      "C" : 2,
      "bottom" : "model\/stage_3_4_pw_relu\/Relu",
      "weights" : {

      },
      "Nx" : 1,
      "pad_mode" : 1,
      "pad_value" : 0,
      "Ny" : 1,
      "n_parallel" : 1
    },
    {
      "pad_r" : 0,
      "fused_relu" : 0,
      "fused_tanh" : 0,
      "debug_info" : "model\/head_azt_obj_conv\/Conv2Dx",
      "pad_fill_mode" : 0,
      "pad_b" : 0,
      "pad_l" : 0,
      "top" : "batch_norm_26",
      "blob_weights" : 107,
      "K" : 64,
      "blob_biases" : 105,
      "name" : "model\/head_azt_obj_conv\/Conv2Dx",
      "has_batch_norm" : 0,
      "type" : "convolution",
      "n_groups" : 1,
      "pad_t" : 0,
      "has_biases" : 1,
      "C" : 1,
      "bottom" : "model\/stage_3_4_pw_relu\/Relu",
      "weights" : {

      },
      "Nx" : 1,
      "pad_mode" : 1,
      "pad_value" : 0,
      "Ny" : 1,
      "n_parallel" : 1
    },
    {
      "pad_r" : 0,
      "fused_relu" : 0,
      "fused_tanh" : 0,
      "debug_info" : "model\/head_azt_bitu_conv\/Conv2Dx",
      "pad_fill_mode" : 0,
      "pad_b" : 0,
      "pad_l" : 0,
      "top" : "batch_norm_27",
      "blob_weights" : 111,
      "K" : 64,
      "blob_biases" : 109,
      "name" : "model\/head_azt_bitu_conv\/Conv2Dx",
      "has_batch_norm" : 0,
      "type" : "convolution",
      "n_groups" : 1,
      "pad_t" : 0,
      "has_biases" : 1,
      "C" : 4,
      "bottom" : "model\/stage_3_4_pw_relu\/Relu",
      "weights" : {

      },
      "Nx" : 1,
      "pad_mode" : 1,
      "pad_value" : 0,
      "Ny" : 1,
      "n_parallel" : 1
    },
    {
      "pad_r" : 0,
      "fused_relu" : 0,
      "fused_tanh" : 0,
      "debug_info" : "model\/head_azt_inv_conv\/Conv2Dx",
      "pad_fill_mode" : 0,
      "pad_b" : 0,
      "pad_l" : 0,
      "top" : "batch_norm_28",
      "blob_weights" : 115,
      "K" : 64,
      "blob_biases" : 113,
      "name" : "model\/head_azt_inv_conv\/Conv2Dx",
      "has_batch_norm" : 0,
      "type" : "convolution",
      "n_groups" : 1,
      "pad_t" : 0,
      "has_biases" : 1,
      "C" : 1,
      "bottom" : "model\/stage_3_4_pw_relu\/Relu",
      "weights" : {

      },
      "Nx" : 1,
      "pad_mode" : 1,
      "pad_value" : 0,
      "Ny" : 1,
      "n_parallel" : 1
    },
    {
      "bottom" : "batch_norm_15",
      "weights" : {

      },
      "mode" : 3,
      "debug_info" : "model\/head_dm_obj_sigmoid\/Sigmoid",
      "top" : "model\/head_dm_obj_sigmoid\/Sigmoid",
      "type" : "activation",
      "name" : "model\/head_dm_obj_sigmoid\/Sigmoid"
    },
    {
      "bottom" : "batch_norm_17",
      "weights" : {

      },
      "mode" : 3,
      "debug_info" : "model\/head_dm_inv_sigmoid\/Sigmoid",
      "top" : "model\/head_dm_inv_sigmoid\/Sigmoid",
      "type" : "activation",
      "name" : "model\/head_dm_inv_sigmoid\/Sigmoid"
    },
    {
      "bottom" : "batch_norm_18",
      "weights" : {

      },
      "mode" : 3,
      "debug_info" : "model\/head_qr_obj_sigmoid\/Sigmoid",
      "top" : "model\/head_qr_obj_sigmoid\/Sigmoid",
      "type" : "activation",
      "name" : "model\/head_qr_obj_sigmoid\/Sigmoid"
    },
    {
      "bottom" : "batch_norm_20",
      "weights" : {

      },
      "mode" : 3,
      "debug_info" : "model\/head_qr_inv_sigmoid\/Sigmoid",
      "top" : "model\/head_qr_inv_sigmoid\/Sigmoid",
      "type" : "activation",
      "name" : "model\/head_qr_inv_sigmoid\/Sigmoid"
    },
    {
      "bottom" : "batch_norm_21",
      "weights" : {

      },
      "mode" : 3,
      "debug_info" : "model\/head_pdf_obj_sigmoid\/Sigmoid",
      "top" : "model\/head_pdf_obj_sigmoid\/Sigmoid",
      "type" : "activation",
      "name" : "model\/head_pdf_obj_sigmoid\/Sigmoid"
    },
    {
      "bottom" : "batch_norm_23",
      "weights" : {

      },
      "mode" : 3,
      "debug_info" : "model\/head_pdf_inv_sigmoid\/Sigmoid",
      "top" : "model\/head_pdf_inv_sigmoid\/Sigmoid",
      "type" : "activation",
      "name" : "model\/head_pdf_inv_sigmoid\/Sigmoid"
    },
    {
      "bottom" : "batch_norm_24",
      "weights" : {

      },
      "mode" : 3,
      "debug_info" : "model\/head_1d_obj_sigmoid\/Sigmoid",
      "top" : "model\/head_1d_obj_sigmoid\/Sigmoid",
      "type" : "activation",
      "name" : "model\/head_1d_obj_sigmoid\/Sigmoid"
    },
    {
      "bottom" : "batch_norm_26",
      "weights" : {

      },
      "mode" : 3,
      "debug_info" : "model\/head_azt_obj_sigmoid\/Sigmoid",
      "top" : "model\/head_azt_obj_sigmoid\/Sigmoid",
      "type" : "activation",
      "name" : "model\/head_azt_obj_sigmoid\/Sigmoid"
    },
    {
      "bottom" : "batch_norm_28",
      "weights" : {

      },
      "mode" : 3,
      "debug_info" : "model\/head_azt_inv_sigmoid\/Sigmoid",
      "top" : "model\/head_azt_inv_sigmoid\/Sigmoid",
      "type" : "activation",
      "name" : "model\/head_azt_inv_sigmoid\/Sigmoid"
    },
    {
      "bottom" : "model\/head_dm_obj_sigmoid\/Sigmoid,batch_norm_16,model\/head_dm_inv_sigmoid\/Sigmoid,model\/head_qr_obj_sigmoid\/Sigmoid,batch_norm_19,model\/head_qr_inv_sigmoid\/Sigmoid,model\/head_pdf_obj_sigmoid\/Sigmoid,batch_norm_22,model\/head_pdf_inv_sigmoid\/Sigmoid,model\/head_1d_obj_sigmoid\/Sigmoid,batch_norm_25,model\/head_azt_obj_sigmoid\/Sigmoid,batch_norm_27,model\/head_azt_inv_sigmoid\/Sigmoid",
      "weights" : {

      },
      "debug_info" : "_before_transpose_op_Identity",
      "top" : "output",
      "type" : "concat",
      "name" : "_before_transpose_op_Identity",
      "attributes" : {
        "is_output" : 1
      }
    }
  ]
}